…
	 dataset              : MNIST
	 batch_size           : 64
	 architecture         : VGG5_wFeedback
	 learning_rate        : 0.0001
	 pretrained_ann       : 
	 test_only            : False
	 epochs               : 100
	 lr_interval          : [60, 80, 90]
	 lr_reduce            : 10
	 optimizer            : Adam
	 weight_decay         : 0.0005
	 momentum             : 0.9
	 amsgrad              : True
	 dropout              : 0.2
	 kernel_size          : 3
	 devices              : 0
	 timesteps            : 1
	 trade_off            : 8.0
 DataParallel(
  (module): VGG_wFeedback(
    (features): Sequential(
      (0): Conv2d(1, 64, kernel_size=(3, 3), stride=(1, 1), padding=(1, 1), bias=False)
      (1): ReLU(inplace=True)
      (2): Conv2d(64, 64, kernel_size=(2, 2), stride=(2, 2), bias=False)
      (3): Conv2d(64, 128, kernel_size=(3, 3), stride=(1, 1), padding=(1, 1), bias=False)
      (4): ReLU(inplace=True)
      (5): Dropout(p=0.2, inplace=False)
      (6): Conv2d(128, 128, kernel_size=(3, 3), stride=(1, 1), padding=(1, 1), bias=False)
      (7): ReLU(inplace=True)
      (8): Conv2d(128, 128, kernel_size=(2, 2), stride=(2, 2), bias=False)
    )
    (generate): Sequential(
      (0): ConvTranspose2d(128, 128, kernel_size=(2, 2), stride=(2, 2), bias=False)
      (1): ConvTranspose2d(128, 128, kernel_size=(3, 3), stride=(1, 1), padding=(1, 1), bias=False)
      (2): LeakyReLU(negative_slope=0.01)
      (3): Dropout(p=0.2, inplace=False)
      (4): ConvTranspose2d(128, 64, kernel_size=(3, 3), stride=(1, 1), padding=(1, 1), bias=False)
      (5): LeakyReLU(negative_slope=0.01)
      (6): ConvTranspose2d(64, 64, kernel_size=(2, 2), stride=(2, 2), bias=False)
      (7): ConvTranspose2d(64, 1, kernel_size=(3, 3), stride=(1, 1), padding=(1, 1), bias=False)
      (8): Sigmoid()
    )
    (classifier): Sequential(
      (0): Linear(in_features=6272, out_features=4096, bias=False)
      (1): ReLU(inplace=True)
      (2): Dropout(p=0.5, inplace=False)
      (3): Linear(in_features=4096, out_features=4096, bias=False)
      (4): ReLU(inplace=True)
      (5): Dropout(p=0.5, inplace=False)
      (6): Linear(in_features=4096, out_features=10, bias=False)
    )
  )
)
 Adam (
Parameter Group 0
    amsgrad: True
    betas: (0.9, 0.999)
    eps: 1e-08
    lr: 0.0001
    weight_decay: 0.0005
)
 Epoch: 1, lr: 1.0e-04, train_loss: 0.3239 | 9.8260 | 78.9321, train_acc: 0.8989 test_loss: 0.1317 | 2.1115 | 17.0238, test_acc: 0.9580, best: 0.9580, time: 0:01:05
 Epoch: 2, lr: 1.0e-04, train_loss: 0.1557 | 2.2185 | 17.9039, train_acc: 0.9517 test_loss: 0.1079 | 1.6776 | 13.5289, test_acc: 0.9658, best: 0.9658, time: 0:01:05
…
