…
 Finding threshold for layer 18 [0.45770514011383057, 3.087167978286743, 2.374276638031006, 5.822653770446777, 10.220947265625, 3.950638771057129, 1.1210252046585083]
 Finding threshold for layer 21 [0.45770514011383057, 3.087167978286743, 2.374276638031006, 5.822653770446777, 10.220947265625, 3.950638771057129, 1.1210252046585083, 0.7902485132217407]
 ANN thresholds: [0.45770514011383057, 3.087167978286743, 2.374276638031006, 5.822653770446777, 10.220947265625, 3.950638771057129, 1.1210252046585083, 0.7902485132217407]
 DataParallel(
  (module): VGG_SNN_STDB_wFeedback(
    (input_layer): PoissonGenerator()
    (features): Sequential(
      (0): Conv2d(1, 64, kernel_size=(3, 3), stride=(1, 1), padding=(1, 1), bias=False)
      (1): ReLU(inplace=True)
      (2): Conv2d(64, 64, kernel_size=(2, 2), stride=(2, 2), bias=False)
      (3): Conv2d(64, 128, kernel_size=(3, 3), stride=(1, 1), padding=(1, 1), bias=False)
      (4): ReLU(inplace=True)
      (5): Dropout(p=0.3, inplace=False)
      (6): Conv2d(128, 128, kernel_size=(3, 3), stride=(1, 1), padding=(1, 1), bias=False)
      (7): ReLU(inplace=True)
      (8): Conv2d(128, 128, kernel_size=(2, 2), stride=(2, 2), bias=False)
    )
    (generate): Sequential(
      (0): ConvTranspose2d(128, 128, kernel_size=(2, 2), stride=(2, 2), bias=False)
      (1): ConvTranspose2d(128, 128, kernel_size=(3, 3), stride=(1, 1), padding=(1, 1), bias=False)
      (2): LeakyReLU(negative_slope=0.01)
      (3): Dropout(p=0.3, inplace=False)
      (4): ConvTranspose2d(128, 64, kernel_size=(3, 3), stride=(1, 1), padding=(1, 1), bias=False)
      (5): LeakyReLU(negative_slope=0.01)
      (6): ConvTranspose2d(64, 64, kernel_size=(2, 2), stride=(2, 2), bias=False)
      (7): ConvTranspose2d(64, 1, kernel_size=(3, 3), stride=(1, 1), padding=(1, 1), bias=False)
      (8): Sigmoid()
    )
    (classifier): Sequential(
      (0): Linear(in_features=6272, out_features=4096, bias=False)
      (1): ReLU(inplace=True)
      (2): Dropout(p=0.5, inplace=False)
      (3): Linear(in_features=4096, out_features=4096, bias=False)
      (4): ReLU(inplace=True)
      (5): Dropout(p=0.5, inplace=False)
      (6): Linear(in_features=4096, out_features=10, bias=False)
    )
  )
)
 Adam (
Parameter Group 0
    amsgrad: True
    betas: (0.9, 0.999)
    eps: 1e-08
    lr: 0.0001
    weight_decay: 0.0005
)
Epoch: 1, batch: 200, train_loss: 1.1589 | 164.1928 | 165.3517, train_acc: 0.9827, threshold: [0.32, 2.16, 1.66, 4.08, 7.15, 2.77, 0.78, 0.55], leak: 1.0, timesteps: 50
Epoch: 1, batch: 400, train_loss: 0.8160 | 164.0009 | 164.8169, train_acc: 0.9836, threshold: [0.32, 2.16, 1.66, 4.08, 7.15, 2.77, 0.78, 0.55], leak: 1.0, timesteps: 50
…
